MLAgents/ml-agents-develop-FIXED/Project/Assets/ML-Agents/Examples/3DBall/TFModels/3DBall_006.onnx (onnx, 77052 bytes, 9 tensors)

network_body.observation_encoder.processors.0.normalizer.running_mean f4 [8]
00000000: 2e14 c53a 27f2 86ba de75 793e 90f3 4340
00000010: d47e eb3d 5279 0fb9 7a67 9abe 604d 58bb
0.0015035921 -0.0010295556 0.24361369 3.0617409 0.114988 -0.00013682738 -0.3015707 -0.0033005103

network_body._body_endoder.seq_layers.0.weight f4 [128, 8]
00000000: f055 483d f1ac 07be 57d2 453e dd36 97be
00000010: 2cf1 36be b4b4 033f 888e babd dd1d 113e
00000020: c5a0 0cbf 56c1 523d 19fe d1be c0e4 083e
00000030: 60db 5cbe 8afe 383e 8706 413e c753 32bf
00000040: 6e93 1ebf 1a3e 3fbd bc6f 613e e516 a5bd
00000050: 7af2 cfbe acca 33bc a7a7 c53e e987 a03e
00000060: 0de6 2f3e d7c6 1d3e 0fc8 95be 80f4 36be
00000070: 9f9f 2dbe a83f 833e fb70 f03e 7ac4 f3bd
00000080: a8de 52be e4e0 d5be cb03 a3be 8e17 163e
00000090: 4cc5 b7be 25de adbe cfdb 813e b328 633e
000000a0: 19fb bb3d b7dc 5e3e 3162 813d 434a 183f
000000b0: 5650 c7be 3a81 8b3c 516c 043d 07a1 013d
000000c0: 7cdd 30bf f740 21be 7c46 f83d 45f3 16bd
000000d0: d14a ca3d 183f b2bd 895e 5bbe 6440 e3bd
000000e0: 0aeb ad3d a653 6dbe b91f 1fbf 8e7f 19bf
000000f0: 5bed d8bd be6c cebe 3529 633f 295d 133f
00000100: 1765 153f d8ee 84be c4a6 02be ecc4 a43e
00000110: 1c2f 1bbe b633 d43e 8995 143d c787 153e
00000120: 2cc4 39be 343e 51be 76d2 e0bd 8caf cf3e
00000130: bc09 d53e b34a 3bbe dd6a 9f3e add2 0e3f
00000140: de21 533e 166a bb3e e492 5f3d 0060 863d
00000150: 4db7 4cbe b950 fcbe 9f37 06be a386 3cbe
00000160: 8ffc 3abe 6c10 5fbd 55fb e33a 301e 06bc
00000170: 2cee 903e fdfa 5f3e 35b9 b3be 97ca b83e
00000180: 09fa 203c 257a 20be 9dad e53e 0133 5c3e
00000190: bdab 3ebf 2373 7cbe 38af d0be bb84 273e
000001a0: b904 b23d 173c d3be f50e 8ebe 3127 71be
000001b0: 1257 cabb f56f 563e f4b7 1f3b 7e95 9c3e
000001c0: 8bb3 f43e 9427 73be d760 dbbd d519 54be
000001d0: 20ff c13e 98da 02bf 8da8 f7bd 1e59 913e
000001e0: fb56 df3d db9d 913e 2c2a fcbe e001 113f
000001f0: 0dab f93d d380 c2be 2168 9d3e 9a6e 893e
00000200: b228 853e 1708 b23e 3be4 dabe 0386 dcbe
00000210: 6410 5dbe c233 09be 945a c7bd 5d6c a33f
00000220: f0c6 6c3e 6cc2 933e b2fc 0b3d 80a6 373e
00000230: 3b4f adbe 66d8 9cbe f119 69bd dafa 02bf
00000240: 3f33 993a 4e65 b73e 7c60 993e 7465 013f
00000250: f5a5 6dbd 00df bf3c d3a6 17bf 9e26 db3e
00000260: ff49 b1be 9a9e 4dbe 67ac 7a3e bd14 f93e
00000270: 3fb7 db3e 53f1 d03e 8462 7e3f aa13 b1be
00000280: d534 a53e 3254 b0bd 83b0 03bf 48bc 6ebe
00000290: 36cc 41bd fb23 9d3d e73b a1be bc4d 3ebf
000002a0: 1b50 d23c b8e7 903e eb1b aebe dec8 1dbe
000002b0: d75f 44bf 90e7 6e3e cccc 943e b36b 4dbe
000002c0: 6b5d 0a3f 86f7 a1be 4905 9fbc d591 a33d
000002d0: d5df 42bf c939 2ebf 8606 e5be 37c6 94bd
000002e0: 1fec c8be 5afe 623e c95e 403e 9df1 4dbe
000002f0: 3130 ca3d 48d6 9ebd 27db e33e 0093 9c3d
00000300: 8211 5c3e acf2 073e 04d9 18bf 8927 d63e
00000310: 63b6 97bc a3a3 23be 235c acbe 4bb3 2bbc
00000320: 3e74 cb3d 0e1e 9abd 7c7c 9a3e 4f78 963e
00000330: b765 3cbd 41e8 32be 9d40 40be 2e48 94be
00000340: 5d7a 23bc 61a4 8dbe 77dd 17bf 4f87 40bf
00000350: e7a7 b83e aaec 413c 9939 dcbe 757a 61be
00000360: e379 13bf 15ea 053f 562d 4cbc 8394 01bf
00000370: 0efe 893d 4628 4f3f c317 013e 7633 0f3f
00000380: f042 1d3e 12f5 9e3e 7758 31be 1feb 41bf
00000390: 20c0 b2be a660 e0be 1f43 443e e09a 28be
000003a0: f217 073e 4b0b 893e 7a4e adbe e49a 153e
000003b0: d55e ffbe a361 123f e717 383f ad3b 123f
000003c0: 792e b53d ee2d f73d 8f18 11bf 7925 9b3e
000003d0: 8d60 a23d 65f3 8f3e 8efa e23c b4e2 7abd
000003e0: 42cd 963e 3fb5 8dbe 42f3 3a3f c08c 70be
000003f0: f0df dfbe b80d 823e df4f 65be 5a40 c03e
0.04891008 -0.13249566 0.1931852 -0.29534045 -0.17865437 0.51447606 -0.09109217 0.14171548
-0.54932815 0.05145391 -0.41014174 0.13368511 -0.2156806 0.18065849 0.18850146 -0.69659084
-0.6194371 -0.046690084 0.2201528 -0.080610074 -0.40614682 -0.010973614 0.3860447 0.3135369
0.17177601 0.15407883 -0.29254195 -0.17866707 -0.16955422 0.25634503 0.46961197 -0.11902709
-0.20592749 -0.4177314 -0.3183883 0.14657423 -0.35892713 -0.33958545 0.25363013 0.22183494
0.091787525 0.21763884 0.06317557 0.59488314 -0.3892848 0.017029393 0.03232986 0.03164771
-0.6908796 -0.15747438 0.12122819 -0.036853094 0.09877551 -0.087034404 -0.21422781 -0.11096266
0.08492096 -0.2317644 -0.6215778 -0.5996026 -0.10592147 -0.4031734 0.8873475 0.57564026
0.58357376 -0.25963473 -0.12758929 0.3218149 -0.1515469 0.41445702 0.03627542 0.14602576
-0.1814124 -0.20433885 -0.10977642 0.4056362 0.4160899 -0.18290214 0.31136218 0.55790216
0.20618388 0.36604375 0.054583445 0.06561279 -0.19991799 -0.49280336 -0.13107155 -0.18410735
-0.18260406 -0.05445902 0.0017393628 -0.008185908 0.2830671 0.21873088 -0.3510224 0.36092064
0.009825238 -0.15671594 0.4485902 0.21503831 -0.744808 -0.24653296 -0.4075868 0.16359226
0.08692307 -0.41256782 -0.27745786 -0.23550107 -0.0061749304 0.20941146 0.002437112 0.30582803
0.4779323 -0.23745567 -0.1071183 -0.20712979 0.37889957 -0.511148 -0.120926954 0.28388304
0.10905262 0.28440747 -0.49250925 0.56643486 0.121908285 -0.3798891 0.30743507 0.26842195
0.2600761 0.34771797 -0.4275225 -0.43070993 -0.21588284 -0.1339865 -0.09734073 1.2767445
0.23122764 0.2885927 0.034176536 0.17934608 -0.3384951 -0.3063385 -0.056909505 -0.5116402
0.0011688246 0.35819477 0.29956424 0.5054543 -0.058019597 0.023421764 -0.5923893 0.428029
-0.34626767 -0.20080033 0.24479829 0.48648635 0.42913243 0.40809116 0.9936907 -0.34585315
0.3226687 -0.08609809 -0.5144121 -0.23314011 -0.04731389 0.07672878 -0.31491014 -0.74337363
0.025672963 0.28301787 -0.34005675 -0.15408656 -0.7670874 0.23330522 0.29062498 -0.20060615
0.54048795 -0.31634158 -0.0194117 0.079868 -0.7612279 -0.68056923 -0.4473154 -0.07264369
-0.39242646 0.2216734 0.18786158 -0.201117 0.09872473 -0.07755715 0.44503137 0.076452255
0.21491054 0.13276166 -0.5970614 0.41827038 -0.018519586 -0.15980391 -0.33664045 -0.0104797585
0.09934281 -0.07525264 0.301731 0.29388663 -0.04599544 -0.1747141 -0.18774648 -0.2896132
-0.009977904 -0.27664474 -0.59322304 -0.75206465 0.360656 0.01183621 -0.43012694 -0.2201937
-0.5760786 0.52310306 -0.012461981 -0.50617236 0.0673791 0.8092083 0.1260672 0.559379
0.15357566 0.3104635 -0.17318903 -0.7574939 -0.34912205 -0.43823737 0.1916623 -0.1646533
0.13192728 0.26766428 -0.33848935 0.14609867 -0.4987704 0.5718023 0.7191147 0.5712231
0.088467546 0.12069307 -0.566781 0.30302027 0.07928572 0.28115383 0.027707364 -0.061251357
0.29453474 -0.27677342 0.7302743 -0.23491192 -0.43725538 0.25401092 -0.2239375 0.37549096

network_body._body_endoder.seq_layers.0.bias f4 [128]
00000000: d808 43bd 02a1 643b d7db 3dbd 1848 963d
00000010: e664 2dbd 75c4 4dbd d7b1 77bc 7b75 b2bb
00000020: eb12 143d 7cbf 2eba 64ae 533d 66d6 9abd
00000030: 29a3 55bd 4683 853c b345 c7bd e280 0b3c
00000040: 120a a13c d35d cbbc fdba 61bd 33fa edbc
00000050: b992 663d 9a2f 473d 2c79 513d d37a 183c
00000060: 72d2 c73c d602 143d 4069 cebd d8a9 55bd
00000070: db94 043a 53fe 32bd 61e0 763d d340 b2bd
00000080: 8612 303d 9ec8 91bd c504 0bbd 4535 1fbd
00000090: e6bb 07bd 01ac 133c e990 813d 5e83 37bb
000000a0: 33ff afbc 5ea0 e33c f1ff 11be 8886 673c
000000b0: 3197 6cbd 9979 7fbc 4d32 aa3b c752 0ebc
000000c0: 37ed fe3b 37f5 2e3c c7ff 203d 20b4 bebd
000000d0: 6723 80bc db3b 28bd 0f5e 80bd 8513 a0bb
000000e0: 4ec6 00bd 1df0 1f3c a8c4 1bbc 37da 69bd
000000f0: 229e 02bc 3523 debc b823 bbbd 0137 87bd
00000100: 1334 ac3c 75d0 6cbd 70d5 9dbc 433c 723c
00000110: aee5 e7bc 4cd2 1f3d 1ec8 423d d72e 22bd
00000120: 30c7 acbc 8c71 df3b 6d20 f4bc 37c7 20bd
00000130: d93c c7ba 8731 1bbc 3daa e1bd e6d9 d83b
00000140: 5866 383c 3cd9 033d 0e98 423d d28e a5bc
00000150: 0dc9 f8bc 7d74 95bd c322 fcbb d0c4 91bc
00000160: 6971 b9bb 7091 233d 128f 443d 557c 6ebd
00000170: 9b92 05bd e2ab 183d 7013 b2bc 4acc ecbd
00000180: b455 d63c 227d 99bb b6eb 5cbb 0e50 01be
00000190: 1c8c f5bc 9826 bfbc 6628 cb3c 7a85 12bd
000001a0: cdfe 1abd 7c47 06bd 845f 3bbc f800 963b
000001b0: 419e 6d3d 41de 7cbd 1282 08bd b4fe adbc
000001c0: edd1 5d3c 230e 54bd 224f 1cbb 50b0 14bd
000001d0: 6a08 82bd 9da9 c73c 6cb0 03ba 8df4 bbbd
000001e0: 19e6 bcbc 61f1 c13b e26e a13c d408 7e3d
000001f0: f048 413c c966 2a3d f7bf 3dbd 395e 393d
-0.047615856 0.0034886007 -0.046352234 0.073379695 -0.042332552 -0.050236184 -0.015118084 -0.0054461337
0.036150854 -0.00066661066 0.051679984 -0.075604245 -0.052157555 0.016297948 -0.09730091 0.008514615
0.019658122 -0.024825012 -0.055109967 -0.029049968 0.05629227 0.04862938 0.05114095 0.009306627
0.02439234 0.036135517 -0.100786686 -0.05216393 0.00050575816 -0.043699574 0.06027258 -0.087037705
0.042986415 -0.07118343 -0.033940095 -0.03886916 -0.03313818 0.009013177 0.063264675 -0.0028001885
-0.021483993 0.02778643 -0.1425779 0.014131196 -0.057761375 -0.015592956 0.0051939846 -0.008686728
0.007779743 0.010678581 0.03930643 -0.093117 -0.015641881 -0.041072708 -0.0626794 -0.0048851394
-0.031439118 0.009761837 -0.009507336 -0.05709287 -0.007972272 -0.027116397 -0.09137672 -0.06602288
0.021020925 -0.057815988 -0.019266814 0.014784875 -0.028307762 0.039018914 0.047554128 -0.03959545
-0.021091074 0.0068189558 -0.029800618 -0.039252486 -0.0015200629 -0.009472257 -0.110187985 0.0066177724
0.011254869 0.032189593 0.047508292 -0.020209704 -0.030369306 -0.07297609 -0.0076945736 -0.017794043
-0.0056592715 0.039933622 0.047988005 -0.05822404 -0.032610517 0.037273295 -0.021737784 -0.115624025
0.026163913 -0.0046841064 -0.003370983 -0.12628195 -0.029974036 -0.023333833 0.024799537 -0.035771824
-0.037840653 -0.032783017 -0.011436347 0.004577752 0.05801225 -0.061735395 -0.03332717 -0.021239616
0.01353882 -0.051771294 -0.0023850878 -0.036300957 -0.06349261 0.02437287 -0.00050235423 -0.09177504
-0.023058938 0.005918667 0.019706193 0.062020138 0.011797175 0.04160193 -0.04632565 0.045255873

network_body._body_endoder.seq_layers.2.weight f4 [128, 128]
00000000: 69d8 40be 03d8 24bd ec0c 5f3d d2b6 09bc
00000010: 91c7 2d3e fd20 9c3d 96cf 823c 6f72 12bc
00000020: eefb b23d baa8 233e 6d2a 163a fe45 26be
00000030: 2bdf 4abc 1986 f13d 1695 e3bd 084f 3ebe
00000040: aaa9 acbe 80db 4ebe 0655 f23c ae22 0b3e
00000050: 5d24 033d 3544 2dbd 74fc 1d3d d611 083b
00000060: 0bab f63b 48f1 173c f25c 83be 0743 b9be
00000070: 55f0 0abe bec6 e7bd 7929 b4bd 6290 e03c
00000080: 3071 0ebd da8b e5bd 2a2c 943c feaa 3abd
00000090: bf65 babd 8d38 dfbc 0971 47bd 67ff 193e
000000a0: bf4e 7abd 2421 06bd e5a7 013e 2b02 40bc
000000b0: ee46 d83d aacd c7bd 311d 3c3e ac7e d5bd
000000c0: bdf3 05be f167 a4bd 1c43 513d 1362 c4bd
000000d0: f882 0cbe 806d 363d 1e61 e0bd d73e 1a3a
000000e0: 11a4 4dbe 6229 c33c 7dfa 3ebe 9f95 4abd
000000f0: f6cd afbd 82c6 633b 5037 7dbc e385 44bd
00000100: 7d36 aa3d 38a4 4cbe 1c49 cabd 4277 8b3a
00000110: 4dd6 bf3b c342 ff3c 5789 b73d 7630 be3d
00000120: b6c5 8ebd ead6 d73d 0775 c1bc 20f4 483c
00000130: 7e75 563d e32a 29be adab cbbb 497a 75bd
00000140: 6bb8 b8bd aca7 0c3d a68e 0f3e 19df 2c3d
00000150: dc15 a1bd d9dd 5ebd 8dc4 353d f2ee 4f3c
00000160: d640 fcbd d5dd 7cbd 66c3 27bc bf74 65bc
00000170: bdee 173d d79d 62bb 1dfa efbd aa64 9bbd
00000180: 1000 04be bf29 e9bd c609 efbc 4228 68bd
00000190: f894 0cbe eb8f 823d 6f1e b53d c5d6 ab3d
000001a0: 3e42 04bd 925e 09be b3a6 c5bd c8b9 653d
000001b0: de05 b33d 0549 8dbd 3f81 113d 85e3 f1bc
000001c0: 1ebf 2cbe 9f77 a7bd 2af9 3f3e cf47 953d
000001d0: 4f03 55bd 15f4 433d 9759 8dbd b678 843d
000001e0: 325c 19be a066 b7bd 23e9 50bd b2cf 1c3e
000001f0: cc77 d3bb 232c b5bc df04 5bbd 95c2 133e
00000200: 433d 2fbd ec8f a2bd ecbb 473d 74c4 853d
00000210: 336a 693d b644 59be 9444 6ebb 5f29 a6bd
00000220: 6bc8 a5bd 2572 cbbd 93cc bebd 5437 173e
00000230: 003d 113e 88a8 6dbd 0ddb 05be eaa6 a33d
00000240: 5e0a 8dbd b03d 123d 90e4 61bb f2f7 fb3d
00000250: 2728 9dbd 8a92 443e 2518 15be 7f49 7b3d
00000260: 678a 36be 3fc7 b63d b505 fd3c 4c8f 07be
00000270: 76ad 86bd cfce 68bb 709a 823c 0de8 1abd
00000280: eac1 a6bd 284f 763d 0a8f 34bc f034 42bb
00000290: c9af aabd adc8 1d3d 9105 2bbe a383 b03d
000002a0: ff5d 843d e31d 21be d122 113e d79b 9abd
000002b0: 4137 eebd 2de1 5a3d c657 dcbc 83f7 ffbd
000002c0: e505 763e 607f 62bd ac76 06bd 19ef 3a3d
000002d0: f6e0 9d3d 667e 73bb c6b8 21bd c1bb ce3c
000002e0: 19d7 d2bb fe73 41bd 749b 2d3d 9c07 cb3d
000002f0: 9dc0 493d a2ba 46bd a904 40bd 8f66 8a3d
00000300: 21e2 7b3d ed79 763d b579 2f3d bf69 a43d
00000310: cefb 6bbd 352a 493d 9f8b f33d 68af 2b3e
00000320: bf23 fd3d c6db 96bd 3427 a1bd d74f 5e3c
00000330: 42a4 8e3d 1042 c93b 0489 08be 6ad8 33ba
00000340: 98c4 79ba 5bf6 4fbe bba1 1e3d aea4 80be
00000350: 3e36 f93c dc38 283d a31c 3b38 29e1 2bbc
00000360: b66e 113d f664 9fbd effa 0fbe d9c9 10bd
00000370: 5245 2cbe 268c 61bd 6f99 16be 0d9a 3fbe
00000380: 064c aebd e230 18be 1d04 19bd 501e 45be
00000390: d5b0 9abd 21ae 74bd c9a8 0cbd b4b8 49bd
000003a0: 0149 33bd e2fe 7fbd d0ca 343e 30ca ab3d
000003b0: fe8d efbd d727 1bbe 40f0 d0bd fd7e 54be
000003c0: 6394 02bd 798d a83d 950f 2f3d 8e47 03be
000003d0: 9ec1 a3bc 881a b1bd 8b1b c6be 4977 77bd
000003e0: 4f94 03be 1b63 6dbe 2fd3 15be 3acb a8bc
000003f0: e652 f33d 7538 013e 80e4 8f3d a4bd 1ebe
-0.18832554 -0.040245067 0.054455683 -0.008405404 0.1697066 0.076234795 0.015968125 -0.008938416
0.08739458 0.15982333 0.0005728368 -0.16237637 -0.012382309 0.11793155 -0.1111242 -0.18584836
-0.33723193 -0.2020092 0.029581558 0.13587448 0.0320171 -0.042301375 0.038570836 0.0020762584
0.007527714 0.0092738345 -0.2565685 -0.3618395 -0.13568242 -0.11317204 -0.08796973 0.027412597
-0.034775913 -0.11208315 0.018087465 -0.045573227 -0.09101438 -0.027248645 -0.048691783 0.15038835
-0.061110254 -0.03274645 0.12661703 -0.011719267 0.10560404 -0.09756024 0.1837051 -0.10424551
-0.1308126 -0.08027638 0.05108939 -0.09589019 -0.13721836 0.04453802 -0.10956024 0.00058839977
-0.20082118 0.023823444 -0.18650241 -0.049459096 -0.08584206 0.003475577 -0.015455082 -0.047979247
0.08311174 -0.1998452 -0.09877226 0.00106404 0.005854404 0.031159764 0.08961742 0.09286587
-0.06971304 0.105390385 -0.023615373 0.012265235 0.052358143 -0.16520266 -0.0062155337 -0.059931073
-0.0901955 0.03433959 0.1401926 0.04220495 -0.078654975 -0.05441079 0.0443769 0.012691246
-0.12317054 -0.061734993 -0.010239458 -0.014004885 0.037092913 -0.0034578943 -0.11717627 -0.075875595
-0.12890649 -0.113849156 -0.029179465 -0.056679018 -0.13728702 0.063751064 0.08843695 0.083905734
-0.032289736 -0.13414982 -0.09650936 0.056085378 0.087413535 -0.06898693 0.03552365 -0.029527435
-0.1686978 -0.08177113 0.18747392 0.07289087 -0.05200511 0.047840197 -0.069018535 0.06468336
-0.14976576 -0.08955121 -0.051003587 0.15313604 -0.00645349 -0.022115773 -0.053471442 0.14429696
-0.042783033 -0.07937607 0.0487632 0.06531611 0.056986045 -0.21217617 -0.0036356794 -0.0811336
-0.08094867 -0.09933881 -0.09316363 0.147672 0.14183426 -0.058022052 -0.13071842 0.07990821
-0.06886743 0.03570336 -0.003446851 0.12303151 -0.07673674 0.19196525 -0.14559992 0.06134939
-0.17826234 0.08924722 0.03088651 -0.13238257 -0.06576054 -0.0035523658 0.015942782 -0.037818957
-0.08142455 0.060134083 -0.011020431 -0.0029633604 -0.083343096 0.038521457 -0.16701342 0.08618858
0.06463241 -0.15734057 0.14173438 -0.07549255 -0.116316326 0.0534374 -0.026897322 -0.12498381
0.24025686 -0.055297256 -0.032828018 0.045638178 0.077089235 -0.0037154197 -0.039482854 0.025236012
-0.006434333 -0.04722976 0.04238458 0.09913561 0.049255956 -0.04851783 -0.046879444 0.06757843
0.06149495 0.06017487 0.04284068 0.08027982 -0.057613187 0.049112517 0.11891865 0.16766131
0.12360334 -0.07366137 -0.078688055 0.01356884 0.069649234 0.0061419085 -0.13333517 -0.00068605563
-0.0009527891 -0.20308821 0.038728457 -0.2512564 0.030421373 0.04106985 4.4610944e-05 -0.010490694
0.035505973 -0.07782929 -0.14060567 -0.035348747 -0.16823319 -0.055065297 -0.14706968 -0.1871111
-0.08510594 -0.14862397 -0.03735744 -0.19249845 -0.07553259 -0.059736375 -0.034340654 -0.049248412
-0.043770794 -0.062498935 0.17655492 0.083881736 -0.11697005 -0.15151916 -0.10202074 -0.20751567
-0.031879794 0.08230109 0.04273947 -0.12820265 -0.019989785 -0.086476386 -0.3869289 -0.060416494
-0.12849544 -0.23182337 -0.14631341 -0.020604718 0.11881046 0.12619193 0.07026005 -0.1550203

network_body._body_endoder.seq_layers.2.bias f4 [128]
00000000: 091d 763d 733c 0a3d 15ea b6bc 2f47 c3bc
00000010: 4361 2cbd b393 edbc cbf4 d73c 30cf 833d
00000020: ff4e 2bbd c545 edbc 0020 5eb2 bafa c33d
00000030: 11ca 6c3d 1987 88bd 675e b3bc 5d35 223d
00000040: 1ca0 1e3d d6a9 d63d 208e ca3c bfac 2dbd
00000050: 2348 023e 983a 24bd 27df 38bd 69e1 0abd
00000060: a04a aa3c 47e9 433d 786e 93bc 40b8 cebb
00000070: 2041 55bb 28d8 8abd 1a27 edbc e888 d93b
00000080: b13f a23c cc91 373d cb8a 513a de13 7f3c
00000090: a667 babc c31c babb 4d34 af3c 7119 d03c
000000a0: 2be5 29bd 8e62 08bd 88a4 3abd 239f 85bc
000000b0: c941 5cbd 65a2 143d f6f8 49bd 0300 4d3d
000000c0: 4910 d43c b715 4dbd b63b 243c 9971 cc3c
000000d0: 6d1a 2ebc 75b0 e4bc f009 cb3c 64d9 99bc
000000e0: 8002 073d 8a93 afbc 461a 9cb9 9009 5bbc
000000f0: 29ea c93a 511b 2dbd 98b5 0b3c c1c4 19bd
00000100: 4ef0 a53c 8c8f 903d 71d6 983a 1c73 b7bc
00000110: 2f91 d93c 7434 57bd 3f1a 42bd 2d70 84bc
00000120: 4b5b 2a3b 8c87 24bb 0589 ec3c 0517 edbc
00000130: 9d9c 3e3d ce1c a03c 625c 063d f1c9 d9bc
00000140: 4366 1a3d 8692 253d 5d0d 30bb f664 a9bc
00000150: 052f c5bb 8e32 38bc 48b4 feba 5ab2 063d
00000160: 8d86 633c c15f edbb 4e69 bd3b d47e d239
00000170: 4e67 3abd da29 9fbc bb5b 793b 98eb 3abc
00000180: 3267 fdbc a974 8dbc 8f0a 2fbd 62a5 ecbc
00000190: 00d4 04bd 2199 e33b 08a4 733d aba4 8bbc
000001a0: 5004 3e3d c489 aebc 85f5 8cbc 7a26 27bd
000001b0: 14bf 683d 794b dc3c 1d3f 643c 04ee d03b
000001c0: a7ee 3abd 7238 20bd b8e8 f3bc 27a3 31bd
000001d0: 8018 13bd 0639 3d3c 37f0 c5bc b33e ddbb
000001e0: 9723 9a3b c892 43bb 877a 143d 3aa0 17bd
000001f0: e7c7 d2bc 786a febb acba 333d 71c7 8eb9
0.060086284 0.033749055 -0.022328416 -0.023837654 -0.042084944 -0.029001093 0.026361844 0.06436002
-0.041823383 -0.028963933 -1.2929377e-08 0.09569307 0.057809893 -0.06666393 -0.0218956 0.039601672
0.03872691 0.104816124 0.024725974 -0.04240107 0.1272283 -0.04009494 -0.04513469 -0.033906374
0.020787537 0.047829892 -0.017997012 -0.0063085854 -0.0032540038 -0.0677951 -0.02894931 0.006638635
0.019805761 0.044816777 0.0007993399 0.015568702 -0.022754502 -0.005679698 0.021387244 0.025402756
-0.041478317 -0.033297114 -0.045567065 -0.016311234 -0.053773675 0.036287684 -0.049309693 0.05004884
0.025886672 -0.050069537 0.010024002 0.024956511 -0.010626418 -0.027916173 0.024785012 -0.018780418
0.03296137 -0.021432657 -0.00029774214 -0.013368979 0.0015404868 -0.04226238 0.008527182 -0.037541155
0.020256188 0.070586294 0.0011660588 -0.022393756 0.026558487 -0.052540258 -0.04738831 -0.01616677
0.0025994356 -0.0025105206 0.02887393 -0.02894164 0.046536077 0.019544985 0.032802947 -0.026585551
0.03769518 0.04042294 -0.0026863434 -0.020678025 -0.006017568 -0.011242522 -0.001943239 0.032884933
0.01388706 -0.007244081 0.0057803756 0.00040148816 -0.045508675 -0.019429136 0.003804906 -0.011408709
-0.030932996 -0.017267542 -0.04273468 -0.028887454 -0.03242874 0.0069457446 0.059482604 -0.017046293
0.04639083 -0.021305926 -0.017206917 -0.04080818 0.05682285 0.026891457 0.013931063 0.00637603
-0.045637753 -0.03911633 -0.029774055 -0.043368485 -0.035912037 0.01154924 -0.024162395 -0.006751859
0.0047039497 -0.0029842127 0.036249664 -0.03701804 -0.025730086 -0.007764157 0.043879196 -0.00027232946

action_model._continuous_distribution.log_sigma f4 [1, 2]
00000000: 0a9b 23be c327 08be
-0.15977111 -0.13296418

action_model._continuous_distribution.mu.weight f4 [2, 128]
00000000: 450f ddbc 9dbb 0a3e 0bc2 a93b 5176 5d3d
00000010: d602 91bb 5294 14bc 0c7d 48bd ba72 88bd
00000020: b9a0 00bc 894d 863d 0765 513c 0098 95bd
00000030: 90ae 593c 3376 84ba 40af 5a3b e8b6 85bd
00000040: 27d7 a8bd d79f 05be 131d 9cbc bfaf 2abc
00000050: 7dbf 12be 69a1 733c d515 ee3c 8691 cf3c
00000060: cd05 1abd 9a10 373d 9331 98bc 583c 003d
00000070: 1180 4c3d e6bb 9e3b 92bf ac3c 69cc d63d
00000080: 29b6 fd3c d3fd 91bc be83 f3bc a75d 3c3d
00000090: d0cb 953c a918 27ba 114d b83b 6370 dabc
000000a0: 9030 1c3b 7853 c93c 81a7 ef3b 363d d83b
000000b0: 97a4 07bb 5a3d 18bc 6bcf 3aba d700 09bd
000000c0: 5dbf 37bd c80f 9a3c f074 2fbd 27c9 b93b
000000d0: 7e9f 14bb 31b7 093d cc61 6dbb 965e 2a3d
000000e0: 44a8 6ebd 223c 8dbb 6759 f63c 00aa 543c
000000f0: 00f5 6cbc dbe9 c13c a27d 1bbd 7ef4 173c
00000100: f1fb cfbb d661 8abd 8bbe eabb 97ee d9ba
00000110: 98bc 2dbd dda1 023c 9f85 5ebb 0ff9 613c
00000120: 6bce 2cbc e2a1 ff3c c883 c63d 366f 0cbc
00000130: 21bc 06bd 8416 113d a630 1abd 0307 ff3c
00000140: 578e 65bd 7130 433d 8c9e 513d 53c6 63ba
00000150: 8953 3dbd d652 993c 66c9 49bc 8a9a 643c
00000160: 0391 b3bc de0f dfbb 1b37 6cbc 4a91 463a
00000170: 0b37 94ba 2a42 bebb b93f d6bc 90ee 1fbc
00000180: e7ed 9ebc 9812 513d 490f 5b3c 8ffa 873c
00000190: 0c35 e63b 9e85 09bc de8f 43bd af8c 10bc
000001a0: 0101 2cbc 61cb 853c 77af b53b 1780 1bba
000001b0: 9bfd ef3c 170e fcbc d5c3 2b3d d995 f8bc
000001c0: 002a a43c f58b c33b 3066 5eba 880f f53b
000001d0: db4b 1d3c f082 02bd c783 823c 5e6f bdba
000001e0: 6f4b c8bc 9f27 c53d 1997 023e 126c cf3c
000001f0: 68d2 b6bb 19c1 e33c 0510 06bd 434b ba3c
00000200: 2760 8f3d b76f c53c 3677 13bd 6df7 073b
00000210: 9687 d63a 89b3 14bd 4a48 3bbc 1db7 b83d
00000220: 8b84 43bc 6256 3cbc 7ff9 8f3c 7fd2 b83d
00000230: d999 ce3d fff6 873c a6f4 5aba de22 9fbc
00000240: 8f96 8ebd 47fb ce3c abc9 e6bd cc60 04bc
00000250: f349 63bc 0ce0 d7b8 acc3 2bbc 6de5 3b39
00000260: c4f7 a1bc 1f13 813d 4f72 3ebc 6a70 8c3c
00000270: 1a23 11bd 34e1 413c 6fec 23bd 1582 ccbb
00000280: 449b b6bd 22af f03c 5b90 febb fbc2 95bd
00000290: 4b6e 6b3c 4e97 1bbd 08c9 2b38 7331 f5bb
000002a0: 43af 8abb 9c46 12bd fc89 22bc fa8d c43c
000002b0: 2ba4 613b 4e21 8a3d 3898 d83b 3932 763d
000002c0: 57d0 2cbc 4220 d23c f591 a1bb 93bb 293d
000002d0: e9bb c73b 95d4 fc3b a92f 1d3d 57c7 01bd
000002e0: a13d 25bd 9b77 25bc fc19 073d 2262 3abd
000002f0: c471 bb3b 5671 3abb 1cdc 00bd e8be 993b
00000300: e9a9 373d 3ef0 9f3c ac1b bdba f4b5 3abc
00000310: 55b0 5c3c 468c f238 557c e93a 70c0 8bbd
00000320: e736 a5bd ab0c db3c 0fd0 273d 1cbe c6bb
00000330: 2af6 473d 5169 2e3d 29f6 a2bc 1bde 00bd
00000340: 74e6 5cbb 69d8 07be 7273 a33c d7c5 e0bc
00000350: 3077 9bbc 84e2 ef3c ac62 a13c eda8 523d
00000360: fad6 143d 53fb 8dba e0ea e03c e2af 623b
00000370: dc0b 91bb e6ab d73b 5f7a 4cbc 5087 0a3c
00000380: 9499 863a 0e31 a53b 5968 6cbc da47 50bc
00000390: e74b 72bc 8ede a3bd 1b7d 9b3d bb6d a9b9
000003a0: a5bb a73d 6953 843c 38df 15bd 7f12 6bbb
000003b0: 2f43 bf3d 118d ef3c 379d 263d 90d8 cfbc
000003c0: e1f3 a63b 782e dabb 6080 cabc 74a1 a4bc
000003d0: a0b8 783c 774d b73b 939c 74bc 73b2 15bd
000003e0: cde2 66bc 96e2 ef3b ad7d 433d 7ee2 a0bc
000003f0: 3d84 3abd 06ce 9d3c 1803 ec3c 8098 c6bd
-0.02698482 0.13548131 0.0051806024 0.054067913 -0.004425387 -0.009068565 -0.04894738 -0.06662507
-0.007850819 0.065577574 0.012780434 -0.07304382 0.013286248 -0.0010106027 0.0033368617 -0.06529027
-0.08244162 -0.13049255 -0.019056832 -0.010417878 -0.1433086 0.014870026 0.029063145 0.025337946
-0.03760319 0.044693567 -0.018578326 0.03130755 0.04992682 0.0048441766 0.021087442 0.10488207
0.03097065 -0.017821228 -0.029725906 0.04598775 0.018285662 -0.0006374219 0.0056244214 -0.026664918
0.0023832656 0.024575934 0.007313669 0.006599094 -0.0020697468 -0.009291971 -0.00071262446 -0.033448067
-0.044860233 0.018806353 -0.04283613 0.005669731 -0.0022678073 0.03362197 -0.0036221622 0.04159411
-0.05826594 -0.004310147 0.030071927 0.012979984 -0.014462709 0.023671081 -0.03796161 0.0092746
-0.0063471724 -0.06756942 -0.007163828 -0.0016626891 -0.042416185 0.0079731615 -0.0033954156 0.01379229
-0.010547261 0.031205121 0.09693104 -0.008571437 -0.032894257 0.035421863 -0.03764405 0.031131273
-0.05604395 0.04765362 0.051176593 -0.00086889154 -0.046222243 0.018716257 -0.012316084 0.013952861
-0.021919733 -0.0068073114 -0.014417435 0.00075747503 -0.0011307908 -0.005806227 -0.026153432 -0.009761468
-0.01940055 0.051043123 0.0133703435 0.016598968 0.0070253666 -0.008393673 -0.047744624 -0.008822604
-0.010498286 0.01633233 0.0055445987 -0.00059318676 0.029295733 -0.030768437 0.041934807 -0.03034489
0.020039558 0.005967612 -0.0008483855 0.007478658 0.009600605 -0.031863153 0.015931977 -0.0014452746
-0.024450032 0.09626698 0.12752952 0.025320087 -0.0055792816 0.027802037 -0.03273012 0.022740966
0.070007615 0.024101121 -0.03600236 0.0020746842 0.0016367312 -0.03630403 -0.011430809 0.09019301
-0.011933456 -0.011495205 0.017575024 0.09024524 0.10087938 0.01659727 -0.00083524955 -0.019425806
-0.069623105 0.025266303 -0.11268934 -0.008079719 -0.013872611 -0.00010293731 -0.0104836635 0.00017919177
-0.019771464 0.06302475 -0.011623933 0.017143447 -0.035433866 0.011833478 -0.040020403 -0.006241093
-0.08916333 0.029380385 -0.0077686734 -0.0731258 0.014369558 -0.037986092 4.0956802e-05 -0.0074827014
-0.0042323186 -0.03571187 -0.009920593 0.023993481 0.0034430127 0.067446336 0.0066099428 0.06010649
-0.010547719 0.025650147 -0.0049307295 0.04143865 0.0060953987 0.0077157714 0.03837553 -0.031684246
-0.040341977 -0.010099317 0.032983765 -0.045503743 0.005720349 -0.00284489 -0.031459913 0.0046919473
0.044839773 0.019523736 -0.0014427803 -0.01139592 0.013469775 0.00011565587 0.0017813543 -0.06823814
-0.080671124 0.026739439 0.040969905 -0.0060651433 0.048818745 0.042580906 -0.019892769 -0.031461816
-0.0033706697 -0.13266148 0.01995251 -0.027438087 -0.018977731 0.029282816 0.01970037 0.05143063
0.03633783 -0.0010832347 0.027455747 0.0034589698 -0.0044264626 0.006581771 -0.012480347 0.008455113
0.0010269159 0.005041248 -0.014429175 -0.012712443 -0.014788604 -0.08001433 0.07592221 -0.00032315947
0.08190087 0.016153054 -0.03658983 -0.0035869179 0.09338986 0.02924207 0.040677276 -0.02537182
0.0050949906 -0.0066583715 -0.024719417 -0.020096518 0.015180737 0.0055939513 -0.014929908 -0.036547136
-0.014092159 0.0073207123 0.047727276 -0.01963925 -0.04553627 0.019263279 0.028810069 -0.09697056

action_model._continuous_distribution.mu.bias f4 [2]
00000000: 99cb a6bc 31a2 a33c
-0.020360755 0.0199748

onnx::Div_51 f4 [8]
00000000: 9058 4f3d 9c4f 553d 37c9 263f 53ee 4d3e
00000010: ea65 243f 5422 033f 0e9b 263f f1b3 043f
0.05062157 0.052077875 0.6515078 0.20110445 0.6421801 0.51224256 0.65080345 0.5183707
