MLAgents/ml-agents-develop-FIXED/Project/Assets/ML-Agents/Examples/3DBall/TFModels/3DBall-008bad.onnx (onnx, 77052 bytes, 9 tensors)

network_body.observation_encoder.processors.0.normalizer.running_mean f4 [8]
0	0x3b88f47c	0.0041795354
1	0xbbdcb3df	-0.0067353095
2	0xbce746ec	-0.02823206
3	0x4043c1ea	3.0587106
4	0xbd445b8a	-0.04793886
5	0xbd8c0e36	-0.06838648
6	0xbf81e17e	-1.014694
7	0xbd871bc2	-0.06597091

network_body._body_endoder.seq_layers.0.weight f4 [128, 8]
0	0xbe701d89	-0.23448767
1	0xbe244a05	-0.16043861
2	0x3eed20ba	0.4631403
3	0x3f02b5e5	0.510588
4	0xbe8e42cc	-0.27785337
5	0x3ea223a5	0.3166782
6	0xbeee13a3	-0.46499357
7	0x3da8208f	0.08209335
8	0x3f326c24	0.6969626
9	0xbdf4cfca	-0.11953695
10	0x3eab1389	0.33413342
11	0xbef2b1c4	-0.4740125
12	0x3ee557aa	0.44793445
13	0x3ea5ceb2	0.32384259
14	0x3eb81424	0.35952866
15	0x3e8462e3	0.25856695
16	0x3f1db8ee	0.61610305
17	0xbe5157fe	-0.20443723
18	0x3da32eef	0.07967936
19	0x3efa90ea	0.48938686
20	0x3dbaaec3	0.091153644
21	0xbd2b8d4d	-0.0418828
22	0x3f1f153f	0.62141794
23	0x3e0cf3de	0.13764903
24	0x3e0879f7	0.13327776
25	0xbf299d49	-0.66255623
26	0x3f13aefc	0.5768888
27	0x3de3daba	0.11125703
28	0xbecfd017	-0.40588447
29	0xbed8754d	-0.42276993
30	0x3dab1720	0.0835402
31	0xbf092480	-0.5357132
32	0xbdce5270	-0.100743175
33	0xbf10406f	-0.5634832
34	0xbe29ed15	-0.16594346
35	0xbdf20b2e	-0.118185386
36	0xbdab5cde	-0.083673224
37	0xbe6b6ffc	-0.22991937
38	0xbebd9004	-0.37023938
39	0xbde067e1	-0.10957313
40	0xbd5bdc6f	-0.05367702
41	0xbf09a468	-0.5376649
42	0x3d9477a8	0.07249385
43	0x3e217c4b	0.1577007
44	0xbe5789f1	-0.21048714
45	0x3e8a44de	0.27005666
46	0xbd1e7549	-0.03868607
47	0x3eaa4cc0	0.3326168
48	0xbe07eb86	-0.13273439
49	0x3e4ec25a	0.20191327
50	0x3eb31d29	0.34983185
51	0x3dd9656a	0.10615046
52	0xbe382a8e	-0.17984983
53	0x3f16a0bd	0.5883902
54	0xbe49a9d6	-0.19693694
55	0xbeca996e	-0.39570183
56	0xbe07c7dc	-0.13259834
57	0xbb864e97	-0.004098724
58	0x3e25cc12	0.16191128
59	0xbdb36000	-0.08758545
60	0x3c39fb73	0.011351454
61	0x3e552699	0.20815505
62	0xbf465345	-0.7747081
63	0xbd3f10e8	-0.046646982
64	0xbebd35f4	-0.36955225
65	0xbe748da6	-0.2388216
66	0xbe7285b6	-0.23683819
67	0xbed8d5b5	-0.42350546
68	0x3e4bc7bc	0.19900411
69	0xbe8e294f	-0.2776589
70	0xbe5086c4	-0.20363909
71	0xbf8a4737	-1.0802983
72	0x3c87ddcd	0.016585255
73	0xbe16df10	-0.14733529
74	0x3e9e08d0	0.30866098
75	0xbed7d350	-0.42153406
76	0xbdd66f73	-0.10470476
77	0x3ef250dd	0.4732732
78	0x3ec4c29f	0.38429734
79	0x3ddd4ff6	0.10806267
80	0x3f60197c	0.87538886
81	0xbef05ce8	-0.46945882
82	0xbe4141dd	-0.18872781
83	0xbd871004	-0.065948516
84	0xbee89bc2	-0.45431334
85	0x3f2e1cfc	0.68012977
86	0x3e90cf86	0.28283328
87	0x3dafa688	0.08576685
88	0x3e511ecf	0.20421909
89	0x3ecfcedd	0.40587512
90	0x3e097ab1	0.1342571
91	0x3da1c294	0.07898441
92	0x3d12dd7f	0.035855766
93	0xbeb7d07f	-0.35901257
94	0x3f2f72e4	0.68534684
95	0xbe96db5a	-0.29464227
96	0x3ed46fcf	0.41491553
97	0xbd2bd81e	-0.041954152
98	0x3f004d41	0.5011788
99	0xbebc4009	-0.36767605
100	0x3e168c66	0.14701995
101	0x3e3bd26a	0.18341985
102	0x3e8233fc	0.25430286
103	0x3d1b0cb6	0.03785392
104	0x3e5ff16f	0.21869443
105	0xbf199a7f	-0.6000137
106	0xbf460853	-0.7735645
107	0xbf3da68b	-0.7408225
108	0x3d19f503	0.037587177
109	0x3ea5565d	0.32292452
110	0xbe9fffbe	-0.31249803
111	0xbe70b6a2	-0.23507169
112	0x3eb33eab	0.3500875
113	0xbeb57365	-0.35439602
114	0xbeefcc9c	-0.46835792
115	0x3eacdee8	0.33763814
116	0xbeab419e	-0.334485
117	0xbeae1e24	-0.3400737
118	0xbd02aefd	-0.031905163
119	0xbef920d1	-0.4865785
120	0x3d589d30	0.05288428
121	0xbca089fb	-0.019597044
122	0xbf43c452	-0.76471436
123	0x3f3d3c3c	0.73920035
124	0xbf353d7c	-0.7079694
125	0xbd2ad6ca	-0.041708745
126	0x3e594a47	0.21219741
127	0xbe0d2031	-0.13781811
128	0xbc81586f	-0.015789239
129	0x3f56afc5	0.83861953
130	0x3ec71b67	0.38888094
131	0x3f1e97ee	0.61950576
132	0x3e479532	0.19490507
133	0xbe9c3d02	-0.30515295
134	0xbeccef9c	-0.40026557
135	0xbc9d62e4	-0.019212194
136	0x3e871a9e	0.26387495
137	0x3ec4cc67	0.38437197
138	0x3e9b24b0	0.30301428
139	0xbe5366ca	-0.2064468
140	0x3e1a8e26	0.15093288
141	0x3ea43208	0.3206942
142	0x3e23f702	0.16012195
143	0x3f6771c3	0.9040796
144	0x3cdca809	0.026935594
145	0x3f0fcc8c	0.5617149
146	0x3d583d3e	0.05279278
147	0x3e230160	0.15918493
148	0xbef981bd	-0.48731795
149	0x3ea95a17	0.33076546
150	0x3e4eb904	0.20187765
151	0x3da35885	0.07975868
152	0xbf279c38	-0.65472746
153	0x3e4df5dd	0.2011332
154	0x3efeb757	0.49749252
155	0x3de8bb65	0.11363868
156	0x3ec44b7e	0.38338846
157	0x3ec4c580	0.3843193
158	0x3ee71d29	0.45139435
159	0xbcd5189c	-0.026012711
160	0x3e4d6cf0	0.20061088
161	0x3ebcf7c0	0.36907768
162	0xbebbe6b4	-0.3669945
163	0xbdfdb6de	-0.12388395
164	0xbe96a72f	-0.29424426
165	0xbef58607	-0.47953817
166	0xbd686433	-0.056736182
167	0x3e5e5072	0.21710375
168	0x3d8c1da0	0.06841588
169	0xbe76790f	-0.24069618
170	0x3d4ec6dc	0.050482616
171	0xbbe27d4d	-0.0069119097
172	0x3e5a3967	0.2131096
173	0x3ed339e1	0.41255096
174	0x3d0b6804	0.034034744
175	0xbf2191ba	-0.63112986
176	0x3e6d842e	0.23194954
177	0xbc9b4a12	-0.018956218
178	0x3c26d11c	0.0101816915
179	0x3e0011e2	0.12506822
180	0xbe05c090	-0.13061738
181	0x3e68fbe0	0.22752333
182	0x3e8ff2ed	0.28115025
183	0xbdf9e772	-0.12202348
184	0xbd6eea1c	-0.058328733
185	0xbe9dcf46	-0.308222
186	0x3ecc0263	0.3984557
187	0xbe9cc378	-0.3061788
188	0xbdaa4472	-0.08313836
189	0x3e8a615b	0.270274
190	0xbe9a848d	-0.30179253
191	0x3e82bda8	0.2553532
192	0x3d336bfd	0.043804158
193	0xbe893638	-0.26799178
194	0xbe273f29	-0.16332687
195	0xbf012770	-0.504508
196	0x3e8b938b	0.27261004
197	0xbccd7478	-0.02507995
198	0x3f436824	0.7633078
199	0xbef03c99	-0.46921232
200	0x3b9db432	0.0048127407
201	0x3e6cc789	0.23122992
202	0x3d5d3efe	0.054015152
203	0x3e94bef1	0.29051927
204	0x3e200072	0.1562517
205	0x3f1fcc7e	0.62421405
206	0xbc4656d4	-0.012105662
207	0x3f24de28	0.64401484
208	0x3eb42e91	0.35191777
209	0xbe023d90	-0.12718797
210	0xbe3d9182	-0.18512538
211	0x3eca669a	0.39531404
212	0xbf13a15f	-0.5766811
213	0xbec935ba	-0.39298803
214	0xbe5102d3	-0.20411234
215	0xbe3b0ac0	-0.1826582
216	0xbb9f31ba	-0.004858223
217	0x3dad849d	0.084725596
218	0x3f135e0f	0.575654
219	0xbe12f548	-0.1435138
220	0x3f5a49f0	0.8526907
221	0x3eadd5a3	0.33952054
222	0xbe41d60b	-0.18929307
223	0xbec0309b	-0.37537083
224	0x3f0c1389	0.5471731
225	0xbd8058f0	-0.062669635
226	0x3e2dbecb	0.16967313
227	0x3e9b0594	0.30277693
228	0x3e95cef1	0.29259446
229	0xbd96ab3f	-0.07356881
230	0x3db94e7b	0.09048172
231	0xbec198dd	-0.37811938
232	0x3eae1377	0.33999225
233	0xbef308be	-0.47467607
234	0x3cc4e170	0.024033278
235	0x3edd6427	0.43240473
236	0x3c90a316	0.01765589
237	0x3f03ddc9	0.5151029
238	0xbf00e452	-0.5034839
239	0x3dc1e776	0.09467976
240	0xbee84695	-0.4536635
241	0x3e891e55	0.26780954
242	0x3f1ae074	0.6049874
243	0xbdc6f5b0	-0.0971483
244	0xbcb9f7b1	-0.022701116
245	0xbe9977f1	-0.2997432
246	0x3f4c40fb	0.7978665
247	0xbeae660a	-0.34062225
248	0x3e0809c0	0.1328497
249	0xbecc0d42	-0.39853865
250	0xbeabd599	-0.335614
251	0xbdb886e2	-0.09010102
252	0xbc178359	-0.009247624
253	0xbd68bf7a	-0.05682323
254	0xbd20c2ac	-0.039248154
255	0x3cf4c505	0.029879102

network_body._body_endoder.seq_layers.0.bias f4 [128]
0	0x3c93f99f	0.018063365
1	0xbc8deecd	-0.017325783
2	0x3c7c6a68	0.015406229
3	0x3cbdb1fd	0.02315616
4	0xbc4e7afd	-0.012602565
5	0x3c764614	0.015031356
6	0xbc77a068	-0.015113927
7	0xbc4aff42	-0.01238996
8	0x3cd503d9	0.026002811
9	0xbb18d96a	-0.0023322948
10	0xbbddc301	-0.006767631
11	0xba9132c0	-0.0011077747
12	0xbced1543	-0.028940802
13	0xbb42a86a	-0.0029702433
14	0x3cf9419a	0.03042679
15	0xba833696	-0.0010010775
16	0x3b93f561	0.0045153354
17	0x3cdaf647	0.026728762
18	0xbbdfe6db	-0.00683294
19	0x3c1679d2	0.009184318
20	0xbcc31d3c	-0.023817651
21	0xbb048f65	-0.0020227071
22	0x3bec6f54	0.00721542
23	0xbb8bffd0	-0.0042724386
24	0xbc146b03	-0.009058717
25	0x3bf6256f	0.0075117867
26	0xbc2373ef	-0.009976371
27	0xbcc24f68	-0.023719504
28	0x3ca25d1d	0.01981979
29	0x3a63ba74	0.00086871465
30	0x3c80fb58	0.01574485
31	0xbb03d08c	-0.0020113317
32	0x3c1a49da	0.009417022
33	0x3b2e4bca	0.0026595467
34	0xbca9edfd	-0.020743364
35	0xbb912551	-0.0044294973
36	0xbab638cb	-0.0013902424
37	0x3bd42d31	0.006475114
38	0x3ca9fa16	0.020749133
39	0xbca0ae9a	-0.019614507
40	0xbcb3716a	-0.021904666
41	0x3b803e53	0.0039136796
42	0xbba16193	-0.004924962
43	0x3b1acbd3	0.0023620024
44	0x3af01cf6	0.0018319178
45	0x3b8e2448	0.004337821
46	0x3b0928de	0.00209289
47	0xbc6d5bce	-0.01448722
48	0xbbaf06b8	-0.005341377
49	0x3c8ba8a2	0.017048184
50	0x3cd11332	0.025521848
51	0x3c4231db	0.011852707
52	0x3c66925d	0.014072982
53	0x3b95b9ab	0.0045692525
54	0xbd500dfe	-0.050794594
55	0xbb84d710	-0.0040539578
56	0x3cf769bd	0.030201787
57	0xbbbeb7e3	-0.005820261
58	0xbb7dfc0d	-0.003875497
59	0xbc22fbd8	-0.00994774
60	0x3c6a531e	0.014302043
61	0xbccbdecb	-0.02488651
62	0x3b8e8219	0.004349005
63	0xbc8ef2bf	-0.017449735
64	0x3c9c4d12	0.019079719
65	0xba2eec17	-0.00066727534
66	0x3ccb8d33	0.024847602
67	0xbaa8d366	-0.0012880384
68	0xbc4ec83b	-0.012620981
69	0x3bda1ee7	0.006656516
70	0xbca1962c	-0.019724928
71	0xbb2b0e14	-0.002610092
72	0xbcac5f1d	-0.021041447
73	0x3ad9e806	0.0016624935
74	0xbcc76bb5	-0.02434335
75	0xbc95373d	-0.018214816
76	0x3d3d02e9	0.046145353
77	0x3bef5d66	0.007304835
78	0xbb268bd3	-0.0025412932
79	0x3ca37113	0.019951379
80	0xbcb2efff	-0.021842955
81	0xbc878333	-0.016542053
82	0xbc4608c2	-0.012087049
83	0xbb9ea949	-0.0048419577
84	0x3ad9fc69	0.001663101
85	0x3c8f700c	0.017509483
86	0xbd2469fa	-0.04014013
87	0xbc056ef3	-0.008144128
88	0x3b307dee	0.0026930529
89	0xbb9cd5b9	-0.00478622
90	0xbb623247	-0.003451483
91	0x3bbcd9fd	0.005763291
92	0x3cabd05a	0.020973373
93	0x3b7f247c	0.0038931658
94	0xbd00c59c	-0.031438455
95	0x3c0d4ac7	0.008623785
96	0xbc7400e9	-0.014892795
97	0x3c0d3c8e	0.008620394
98	0x3b4289a4	0.002968409
99	0xbc95342e	-0.018213358
100	0xbceec220	-0.0291453
101	0x3bc462f6	0.0059932424
102	0x3c803bc1	0.015653493
103	0xbadc3b78	-0.0016802391
104	0x3c6c72a4	0.014431629
105	0x3c68b552	0.014203386
106	0x3c8146aa	0.015780766
107	0xbc20fbad	-0.009825629
108	0xbc145534	-0.009053517
109	0x3c296efd	0.010341403
110	0x3cb00708	0.021487728
111	0x3b0e6e15	0.0021733094
112	0xbbb5b817	-0.005545627
113	0x3c70c929	0.014696398
114	0x3ce412aa	0.027840931
115	0x3cd138be	0.025539752
116	0x3ce51ebb	0.027968755
117	0xbc31b94a	-0.010847399
118	0x3c3d08af	0.011537715
119	0xbb8dd89b	-0.0043288
120	0x3be76a10	0.007062204
121	0x3c4f6fb4	0.012660909
122	0x3ba5b74d	0.0050572515
123	0x3c47f3ba	0.012204105
124	0xbc46929b	-0.012119914
125	0x3c0ab1f4	0.008465279
126	0x3b79a0cf	0.0038090234
127	0xbba16a4b	-0.004926001

network_body._body_endoder.seq_layers.2.weight f4 [128, 128]
0	0x3e2fcf2e	0.17168877
1	0xbe15719a	-0.14594117
2	0x3d514ae4	0.051096812
3	0x3d6a9f07	0.057280567
4	0x3c986f1c	0.018607669
5	0xbe739de8	-0.23790705
6	0xbdc23b01	-0.0948391
7	0x3c95cd54	0.018286385
8	0xbcc5ad43	-0.02413047
9	0xbd976c56	-0.0739371
10	0xbc8af87d	-0.016964192
11	0x3dc6bb8b	0.0970374
12	0xbdd3d98a	-0.10344227
13	0xbd7e91c4	-0.06215073
14	0x3da28117	0.07934778
15	0x3dd70641	0.1049924
16	0x3d7d4e7c	0.061842427
17	0x3d2431cd	0.040086556
18	0x3cbf6a93	0.023366248
19	0x3dcbb0ec	0.099458545
20	0x3d8a7f5c	0.06762573
21	0x3dbb212f	0.09137189
22	0xbd9a7ea5	-0.07543687
23	0x3b29e0a3	0.0025921247
24	0xbdaf7540	-0.085672855
25	0x3d900b86	0.07033448
26	0xbb372d6d	-0.002795066
27	0x3d1ba750	0.03800136
28	0xbbd324a0	-0.006443575
29	0xbd2ec0d7	-0.042664375
30	0x3dd01818	0.101608455
31	0xbca35fe4	-0.019943185
32	0x3c0a3fc7	0.008438057
33	0xbe22d3a6	-0.1590105
34	0xbd5ac54c	-0.053410813
35	0x3c529a9a	0.012854243
36	0x3d79ccbc	0.060986266
37	0xbd207664	-0.039175406
38	0xbe5fe7c9	-0.21865763
39	0x3dc12b5f	0.094321005
40	0x3d782c56	0.060589157
41	0x3dac0cef	0.084009044
42	0x3ce0eaf8	0.027455792
43	0xbd47702a	-0.048690952
44	0xbc60226a	-0.01368008
45	0x3dd81e0e	0.105526075
46	0x3d88172f	0.06645047
47	0xbe02e2e5	-0.12781866
48	0x3d0a22d7	0.033724632
49	0x3daff444	0.08591512
50	0xbe2022ad	-0.15638228
51	0xbdeaab07	-0.11458402
52	0xbb92a72d	-0.0044754953
53	0xbd18dd44	-0.03732039
54	0x3d811a3e	0.063038334
55	0xbc8ce1bc	-0.017197482
56	0x3c17a0d7	0.009254656
57	0xbd06c879	-0.03290603
58	0x3db02ed9	0.086026855
59	0xbdcdbc1d	-0.100456454
60	0x3d16b674	0.036795095
61	0x3d2a63db	0.041599136
62	0xbbfa61d7	-0.007641058
63	0x3aa0b309	0.0012260388
64	0xbe11415e	-0.14185092
65	0xbd784a6f	-0.06061786
66	0xbd0a0170	-0.033692777
67	0x3dbae869	0.0912636
68	0x3dc0e391	0.09418405
69	0xbdbb5c5b	-0.09148475
70	0xbe1df748	-0.15426362
71	0x3d9ebb71	0.07750595
72	0x3d8e0629	0.06934769
73	0x3da2957b	0.079386674
74	0x3d30f6b8	0.04320404
75	0xbd5cec8b	-0.053936522
76	0x3d6d422c	0.057924435
77	0xbe129e1c	-0.14318126
78	0xbd20217e	-0.03909444
79	0xbc9f5e51	-0.019454153
80	0xbde8579f	-0.113448374
81	0xbd4f235a	-0.050570823
82	0xbde2f14d	-0.11081181
83	0xbd9ccf23	-0.07656696
84	0x3dfd4c4e	0.123680696
85	0x3d439793	0.047751974
86	0x3dab02c3	0.08350136
87	0x3dbb455f	0.09144091
88	0xbc08efa1	-0.008357913
89	0x39b1af2f	0.00033890593
90	0x3da89bff	0.08232879
91	0x3e4402cf	0.19141696
92	0xbda9557d	-0.08268259
93	0xbe2dfc55	-0.16990788
94	0x3de4d09b	0.11172601
95	0x3b8b3f6f	0.0042495052
96	0x3adee7c5	0.0017006329
97	0xbd91dadd	-0.07121823
98	0x3dfedc72	0.1244439
99	0x3d82f581	0.063944824
100	0x3deb034e	0.1147524
101	0xbd6385ee	-0.055547647
102	0xbd704816	-0.058662497
103	0x3bfdbb47	0.0077432725
104	0xbdb0cdf6	-0.08633034
105	0x3bd391b6	0.006456579
106	0x3d0d6381	0.034518722
107	0xbdc8ee09	-0.098110266
108	0x3e0509a5	0.1299196
109	0xbcbaf49b	-0.022821715
110	0x3d25f033	0.040512275
111	0xbe4fc1ba	-0.20288745
112	0x3d6fe712	0.058569975
113	0x3e257eaf	0.16161607
114	0xbe052bc8	-0.13004982
115	0xbdb5c51b	-0.088754855
116	0xbd5cca81	-0.05390406
117	0x3d7893e2	0.060687907
118	0xbe126ff3	-0.14300518
119	0xbd0118c6	-0.031517766
120	0xbc908d47	-0.017645491
121	0xbe585c75	-0.2112902
122	0xbd480eda	-0.04884229
123	0x3dd57965	0.10423545
124	0xbe0523cc	-0.13001937
125	0xbd4b9b2a	-0.049708523
126	0xbe0ed915	-0.13949998
127	0xbde0c103	-0.10974314
128	0xbdff7e61	-0.12475277
129	0xbdcf5166	-0.101229474
130	0xbe261f66	-0.16222915
131	0xbb55e5ac	-0.0032638116
132	0x3e3896a3	0.18026213
133	0xbdafc546	-0.08582549
134	0xbda282e9	-0.079351254
135	0xbd8e8777	-0.069594316
136	0xbe0b543a	-0.13606349
137	0x3cc43fd5	0.023956219
138	0x3e0a4424	0.13502556
139	0x3db82933	0.08992233
140	0xbd8d395f	-0.06895708
141	0x3bd18328	0.006393809
142	0x3d25c9e2	0.040475734
143	0xbddacbb2	-0.10683383
144	0x3e26e431	0.16297986
145	0xbd5a9abb	-0.05337022
146	0xbdc2bfed	-0.09509263
147	0x3c0b678d	0.008508575
148	0xbd30dfc5	-0.043182153
149	0x3cc04b41	0.023473384
150	0x3daf15b7	0.08549064
151	0x3d6f486d	0.05841868
152	0x3dc39925	0.095506944
153	0x3cae64e9	0.021288352
154	0x3ceca7cb	0.028888604
155	0xbd20ff8b	-0.039306205
156	0xbdbd617f	-0.092471115
157	0x3d48aad3	0.048991036
158	0xbd3b31e7	-0.045701887
159	0x3d84e0ca	0.064881876
160	0xbdde0295	-0.10840336
161	0x3da8ee4a	0.08248575
162	0x3d139f5f	0.03604066
163	0x3c9ca6c4	0.019122489
164	0x3dc139e3	0.09434869
165	0x3d622f4d	0.05522089
166	0xbd44cd91	-0.048047606
167	0x3dc1ea00	0.0946846
168	0x3db5fa63	0.08885648
169	0xbc0c3d29	-0.008559504
170	0xbdbf273f	-0.093336575
171	0x3e39a400	0.18128967
172	0xbe09d550	-0.13460279
173	0xbdfa1e46	-0.122128054
174	0xbdfa311a	-0.12216397
175	0x3df787cc	0.12086448
176	0xbd5a6fc2	-0.053329237
177	0xbc32c8f2	-0.010912167
178	0xbc77cd32	-0.015124606
179	0x3d368040	0.044555902
180	0xbe0bb3e3	-0.1364284
181	0x3d24e1f0	0.040254533
182	0xbce50fba	-0.0279616
183	0xbc51a8b8	-0.012796573
184	0x3dcf82ed	0.10132394
185	0xbc0d77df	-0.0086345365
186	0x3c24ae57	0.0100513315
187	0xbd0db20a	-0.03459362
188	0x3dca47dd	0.09876988
189	0x3c4b231d	0.012398508
190	0xbb6e7a9e	-0.0036389004
191	0x3d6f52ab	0.058428448
192	0x3db1dced	0.086847164
193	0xbb52d0da	-0.0032167942
194	0xbd8607f6	-0.06544487
195	0x3d4b510a	0.04963783
196	0x3c739bf4	0.014868725
197	0x3db14c76	0.08657162
198	0x3cecfe32	0.028929804
199	0x3e4846e9	0.195583
200	0x3e131f37	0.14367376
201	0xbd84670b	-0.064649664
202	0xbbd296aa	-0.006426652
203	0xbe062614	-0.13100463
204	0x3c9ffb0c	0.019528888
205	0x3d989828	0.074508965
206	0x3c7b615b	0.015343036
207	0x3d25d4ff	0.040486332
208	0xbd094b05	-0.03351881
209	0x3dee3dd7	0.11632889
210	0x3c1cfa3a	0.009581143
211	0x3e3c78e7	0.18405496
212	0xbcf736b8	-0.03017746
213	0xbd1ca04a	-0.0382388
214	0xbd3f8384	-0.046756282
215	0xbda6e570	-0.081492305
216	0xbe2c44dd	-0.16823144
217	0x3cf732a8	0.030175522
218	0xbc15d25a	-0.00914439
219	0xbe1e27de	-0.15444896
220	0x3df33f51	0.11877311
221	0x3c60e5a6	0.013726627
222	0xbc79afce	-0.015239669
223	0x3c1eb772	0.009687291
224	0xbdb98a4f	-0.090595834
225	0xbd882228	-0.0664714
226	0x3dfe8444	0.124275714
227	0x3d25907a	0.040420987
228	0x3e7bc0c4	0.24585253
229	0xbbba994c	-0.005694544
230	0x3d855a71	0.06511391
231	0x3e7474dd	0.23872705
232	0x3dd2a630	0.10285604
233	0x3963d3e7	0.00021727347
234	0x3b612428	0.0034353826
235	0x3d86dd7e	0.06585215
236	0x3d9ee253	0.07758012
237	0xbb9bf168	-0.0047590025
238	0xbdb84d64	-0.08999136
239	0xbdd8e8dc	-0.105912894
240	0xbcef091d	-0.02917915
241	0x3de431c8	0.111423075
242	0x3d1bfcad	0.038082767
243	0xbdab4762	-0.083632246
244	0xbdb737b7	-0.08946174
245	0x3cc7f329	0.02440794
246	0xbaef19f8	-0.0018241992
247	0x3d4f9b9c	0.05068551
248	0x3d7f16b7	0.062277522
249	0xbbee866d	-0.0072792084
250	0xbc0eb698	-0.008710526
251	0xbd0f8a2f	-0.03504389
252	0x3d6c75f5	0.05772968
253	0xbd5da861	-0.054115657
254	0x3d01f415	0.031726915
255	0xbbb21853	-0.0054350286

network_body._body_endoder.seq_layers.2.bias f4 [128]
0	0xbc9269b0	-0.017872661
1	0xbbfa0219	-0.0076296446
2	0xbb886fa8	-0.004163701
3	0xbc851d9a	-0.016249467
4	0x3b68c902	0.00355202
5	0x3cab9e45	0.020949492
6	0x3c06f5d8	0.008237325
7	0x3ce8ded3	0.028426563
8	0xbc53a499	-0.012917661
9	0xbc741a32	-0.014898824
10	0xbc1eb788	-0.009687312
11	0xbc5bd54b	-0.013417552
12	0x3ce00e86	0.027350675
13	0xbc4da494	-0.0125514455
14	0xbc8df9c3	-0.01733101
15	0xbbb5ea23	-0.005551593
16	0xbb12c629	-0.0022395945
17	0x3c31e539	0.010857874
18	0x3bc4db68	0.0060076006
19	0x3c467dc4	0.012114946
20	0x3b9e471a	0.0048302533
21	0xbc9c6a99	-0.019093798
22	0x3b2a425f	0.0025979502
23	0x3bc3af93	0.005971858
24	0x3b955ee3	0.0045584305
25	0xbc0afc96	-0.008483073
26	0xbc0aee86	-0.00847972
27	0x3cbb928c	0.022897027
28	0x3b9ea630	0.0048415884
29	0x3d131a39	0.03591368
30	0x3c0c7fbd	0.008575377
31	0x3a81783f	0.0009877755
32	0xbc28840f	-0.0102853915
33	0x3b518648	0.0031970907
34	0x3c45dee7	0.01207707
35	0x3c701160	0.01465258
36	0xba81e001	-0.0009908677
37	0xbc2bbf6f	-0.010482653
38	0xbc278ebf	-0.010226904
39	0xbc30d76c	-0.010793548
40	0x3c2dcb83	0.010607603
41	0xbc55736b	-0.013028006
42	0xbc4f86a3	-0.012666377
43	0xbc81fe28	-0.015868261
44	0x3ae326c1	0.0017330275
45	0xbae549a0	-0.0017493255
46	0xbbda6e7d	-0.0066660033
47	0x3b898115	0.004196296
48	0xbc1cb6b5	-0.009565045
49	0x3cede488	0.029039636
50	0x3b05340d	0.0020325214
51	0x3c5356f9	0.012899154
52	0x3b949f21	0.004535571
53	0xbb574e6c	-0.003285314
54	0x3c6ae97a	0.014337892
55	0xbb9aa6b8	-0.0047195815
56	0xbc3e681c	-0.011621501
57	0x3bcf61c9	0.0063287956
58	0x3b8d9ab1	0.004321419
59	0x3c919542	0.017771367
60	0xbbc3e9fd	-0.0059788213
61	0xbc04f578	-0.008115165
62	0xbce53a49	-0.027981894
63	0xbc4c959a	-0.01248684
64	0xbc0ef6df	-0.008725851
65	0xbc81d0a5	-0.01584656
66	0xbbfe9754	-0.0077695046
67	0x3c38f470	0.011288747
68	0x3cdf82f1	0.027284117
69	0xbc59f3f7	-0.013302795
70	0x3bab40d5	0.0052262344
71	0x3ca0c1a2	0.019623581
72	0x3a858099	0.001018542
73	0xbac88bfa	-0.0015300505
74	0xbc23200f	-0.009956374
75	0x3aed610a	0.0018110585
76	0xbc9f533c	-0.019448869
77	0x3aa238b8	0.0012376523
78	0x3b6b371b	0.0035891
79	0x3c33a836	0.010965398
80	0x3ab520d2	0.0013818985
81	0x3b942326	0.0045207916
82	0x3a1972b4	0.0005853579
83	0x3b26fc40	0.0025479943
84	0x3bed96ef	0.0072506587
85	0xbb9aa497	-0.0047193277
86	0x3cb84d39	0.02249776
87	0x3cc44b38	0.023961648
88	0xbc9880f0	-0.01861617
89	0x3c21104a	0.009830544
90	0xbc9c4db1	-0.019080015
91	0xbb883fde	-0.004158004
92	0x3b42794a	0.0029674345
93	0x3cac9c1e	0.021070536
94	0x3bab4e94	0.005227873
95	0x3c5785a7	0.013154424
96	0xbc2b6bca	-0.010462711
97	0xbc623c35	-0.0138083
98	0x3cb69cc1	0.022291543
99	0xbbd1fdde	-0.006408437
100	0x3b997b8d	0.004683918
101	0x3b6a8a89	0.003578814
102	0xbb5befc0	-0.003355965
103	0x3aa72c78	0.0012754342
104	0xbc5e0b41	-0.013552488
105	0xbc50f795	-0.012754341
106	0xbbc053bb	-0.0058693564
107	0x3b01ba56	0.0019794903
108	0xbc4ab9b3	-0.012373376
109	0x3c09c857	0.008409581
110	0xbc9c9f57	-0.019118948
111	0xbc39907c	-0.011325952
112	0x3b03a5a1	0.0020087736
113	0x3bb65b07	0.0055650505
114	0xbabb2c03	-0.0014280084
115	0x3b03fd83	0.0020140118
116	0x3c7c5ca4	0.015402947
117	0xbc05b848	-0.008161612
118	0x3c93c29c	0.018037133
119	0xbc72427c	-0.014786359
120	0xbbce1954	-0.0062896404
121	0xba9157e6	-0.0011088818
122	0xb9bdb26c	-0.00036181824
123	0xbc781823	-0.015142473
124	0xbc7a86e7	-0.015290952
125	0x3bd1b732	0.0064000124
126	0xbc7a1125	-0.015262877
127	0x3bc4e029	0.0060081673

action_model._continuous_distribution.log_sigma f4 [1, 2]
0	0xbcb4b79f	-0.022060214
1	0xbd01450c	-0.03155999

action_model._continuous_distribution.mu.weight f4 [2, 128]
0	0x3c785827	0.015157736
1	0x3c975ba6	0.018476319
2	0x3c5dd4e1	0.013539524
3	0x3c558261	0.013031573
4	0xbcff196b	-0.03114005
5	0xbd273107	-0.04081824
6	0x3bc5988b	0.0060301474
7	0x3d142e24	0.036176816
8	0x3c590102	0.013244869
9	0xbacbb727	-0.0015542255
10	0x3d055bd2	0.03255827
11	0x3b3e9a62	0.0029083719
12	0xbccdd7ba	-0.02512728
13	0x3c2ce4ce	0.010552598
14	0x3ce4b136	0.027916532
15	0x3b2deac6	0.002653764
16	0x3d2048ee	0.03913205
17	0x3cbb18bb	0.02283894
18	0x3af349c2	0.001856141
19	0xbd2b9949	-0.04189423
20	0x3d0e7abf	0.03478503
21	0x3c0a5296	0.008442542
22	0xbc4b9c50	-0.0124274045
23	0xbb8e01e8	-0.0043337233
24	0xbd5c88a3	-0.053841244
25	0x3d2cd5f0	0.042196214
26	0x3bbe1f00	0.0058020353
27	0x3cb4f67b	0.022090187
28	0xbcaea83d	-0.021320457
29	0xbd2a5629	-0.041586075
30	0xbcaa0cb0	-0.020758003
31	0xbd079328	-0.033099324
32	0x3d103cde	0.035214297
33	0x3d7487d2	0.05969984
34	0x3d8a920e	0.06766139
35	0x3c05dca2	0.008170279
36	0x3c00e772	0.007867681
37	0x3cee9cb5	0.029127458
38	0x3d217acc	0.03942375
39	0x3a8357e2	0.0010020698
40	0xbcd3823d	-0.025818938
41	0x3d0bee3d	0.03416275
42	0x3cc02965	0.023457238
43	0x3d245caa	0.040127434
44	0xba89e728	-0.001052116
45	0x3aded13c	0.0016999613
46	0x3abea36f	0.0014544557
47	0x3d7a5494	0.061115816
48	0x3c43c690	0.011949196
49	0xbd10d251	-0.035356823
50	0xbd2cb814	-0.042167738
51	0xbc655dab	-0.013999383
52	0x3b939767	0.0045041326
53	0x3c14cd8a	0.009082207
54	0x3baee163	0.005336927
55	0xbcefb35a	-0.029260326
56	0x3c4a4ef8	0.012347929
57	0x3c151a31	0.009100483
58	0xbce512d5	-0.027963081
59	0x398c5ad3	0.0002677055
60	0x3d03176b	0.032004755
61	0xba7a0b23	-0.00095384027
62	0x3b86fe52	0.004119673
63	0x3b46aca9	0.0030315316
64	0xbc114ece	-0.008868886
65	0x3c441aa2	0.01196924
66	0xbc67fc10	-0.0141592175
67	0x3d0b35af	0.033986744
68	0xbd6e1e52	-0.058134384
69	0x3c5484fb	0.012971158
70	0xbce1cef8	-0.02756451
71	0xbd50617d	-0.050874222
72	0xbca48fb9	-0.020088064
73	0xba25116d	-0.0006296847
74	0x3d155454	0.036457375
75	0xbc031907	-0.008001572
76	0x3bcea706	0.006306532
77	0x3c5144d4	0.012772758
78	0xbb9f55f5	-0.004862542
79	0xbca14f73	-0.019691205
80	0x3c8c7fcc	0.017150782
81	0x3da7e2e0	0.0819757
82	0x3bb93537	0.0056520957
83	0x3c75e2e3	0.015007707
84	0xbb99d0f2	-0.0046940977
85	0x3d16c845	0.036812086
86	0xbcc94d36	-0.02457295
87	0xbd24b14b	-0.040208142
88	0x3c84df75	0.016219834
89	0x3ce7d141	0.028298022
90	0x3d231367	0.039813425
91	0x3a852014	0.0010156655
92	0xbca6a606	-0.020342838
93	0xbca0dce1	-0.019636573
94	0xbba66792	-0.0050782645
95	0xbc9647d0	-0.01834479
96	0x3c92687d	0.01787209
97	0x3a715562	0.00092061434
98	0x3b5b39b6	0.0033451146
99	0xba8564b0	-0.0010177102
100	0xbce0b650	-0.027430683
101	0x3d648dc9	0.05579928
102	0xbc1a885d	-0.009431926
103	0x3be994ad	0.0071283192
104	0x3c0abb5e	0.008467523
105	0x3ca47367	0.02007456
106	0xbb1709e6	-0.0023046671
107	0x3c8486d2	0.016177569
108	0x3a8de174	0.0010824637
109	0xbc7d78ca	-0.015470693
110	0x3d15d7f0	0.036582887
111	0xbb90b0bd	-0.0044156
112	0xbb942505	-0.0045210146
113	0x3b8da968	0.0043231733
114	0x3d1896e6	0.037253283
115	0xbbb8e95d	-0.0056430534
116	0x3c31b506	0.010846382
117	0x3c1a7703	0.009427789
118	0xb9d85a82	-0.00041266164
119	0x3c652aa8	0.013987221
120	0x3c82e15f	0.015976606
121	0x3d755b83	0.059901726
122	0xb9e0b222	-0.0004285733
123	0x3cc08553	0.023501074
124	0x3bb10972	0.0054027373
125	0xbc1279a8	-0.008940138
126	0x3a1c8de1	0.00059720693
127	0xbbf1d249	-0.0073798043
128	0xbc27d9e2	-0.010244818
129	0x3bb8e019	0.005641949
130	0x3c095ae2	0.008383485
131	0x3b276c73	0.0025546819
132	0xbc3a6bf0	-0.011378273
133	0x3c594547	0.013261146
134	0x3cb7f63b	0.022456279
135	0x3d27c04d	0.040954877
136	0xbb88caa3	-0.004174547
137	0xbc8e27a2	-0.017352883
138	0xbaa0a3b5	-0.001225582
139	0xbc02a45c	-0.007973757
140	0x3c15c218	0.009140514
141	0x3a6282a6	0.0008640684
142	0xbb08e434	-0.0020887973
143	0x3c0132ed	0.007885677
144	0x3bb58b69	0.0055403006
145	0x3d37f7b5	0.044913966
146	0x3ca47479	0.02007507
147	0x3d2117df	0.039329406
148	0x3bfab014	0.0076503847
149	0xbc014838	-0.007890753
150	0xbc3d15f2	-0.011540877
151	0x3c6c1d37	0.014411262
152	0xbd5a7946	-0.05333831
153	0x3968960c	0.00022181141
154	0xbd424b42	-0.047435053
155	0x3d8cde87	0.06878381
156	0xbbeccbe9	-0.0072264564
157	0x3d7b9a04	0.061426178
158	0x3bbcff53	0.0057677417
159	0xbc2b2624	-0.010446105
160	0x3ca8225f	0.020524202
161	0x3c5cdf31	0.013480947
162	0x3ba9c7b7	0.0051812786
163	0x3ccefbae	0.025266495
164	0x3c5b26ec	0.013375979
165	0xbd675fdb	-0.0564879
166	0xbb5957fc	-0.0033164015
167	0xbbb00f4e	-0.005372918
168	0x3ca2b7fd	0.019863123
169	0xbccb7b53	-0.024839079
170	0x3b12a2a9	0.0022374785
171	0xbb2f0bc0	-0.0026709884
172	0x3d2be951	0.041970555
173	0x3c053363	0.008129927
174	0xbced19c2	-0.028942946
175	0xbce4769c	-0.027888589
176	0x3c7c5f25	0.015403544
177	0xbd597608	-0.05309108
178	0x3bfe5ad3	0.007762292
179	0x3c2193c2	0.009861888
180	0x3ca92c30	0.020650953
181	0x3c772300	0.015084028
182	0x3cbc6128	0.022995546
183	0xbccdbd89	-0.025114791
184	0xbb9e9447	-0.0048394534
185	0x3cc1ad46	0.023642194
186	0xbce47418	-0.027887389
187	0x3d19a27a	0.037508465
188	0xbb98b6f4	-0.0046604816
189	0xbb5869c5	-0.0033022028
190	0xbbbaaca1	-0.0056968485
191	0x3b7d92d9	0.0038692264
192	0xbd062e76	-0.032759152
193	0x3b7d6cb4	0.0038669528
194	0xbc9493a5	-0.018136809
195	0xbd608e47	-0.054823186
196	0x3c23fd60	0.01000914
197	0x3be50eac	0.0069902744
198	0xbd414746	-0.047187112
199	0x3c5476f0	0.01296781
200	0xbd32da6c	-0.043665335
201	0x3c0d64ff	0.008630036
202	0xbcf53dce	-0.029936697
203	0xbd86f036	-0.06588785
204	0x3b349bae	0.0027558613
205	0x3cd0ac8c	0.025472902
206	0x3c7d66ea	0.015466431
207	0x3bff4d2c	0.007791182
208	0xbd18b307	-0.03728011
209	0xbc94e42d	-0.018175209
210	0x3c512164	0.012764309
211	0x3d78b4ef	0.060719427
212	0x3c794f65	0.015216683
213	0xbc3100a2	-0.0108033735
214	0xbbc73b3e	-0.0060800603
215	0x3c6954da	0.014241422
216	0xbc10559e	-0.008809475
217	0x3c82892b	0.015934547
218	0xbcb90a1a	-0.022587825
219	0xbd537c62	-0.051632293
220	0x3b1bcc91	0.0023773054
221	0x3c30359c	0.010754969
222	0x3ba273e1	0.0049576615
223	0xbcbcf713	-0.023067033
224	0x3c5fde6e	0.013663871
225	0xbcf064d3	-0.029344952
226	0xbd1691cf	-0.036760148
227	0x3c611ece	0.013740255
228	0xbd2cc1f2	-0.04217715
229	0xbd56dfc3	-0.05245949
230	0xbc261b96	-0.010138413
231	0x3c2d2452	0.0105677415
232	0xbc213abd	-0.009840664
233	0xbc6c3462	-0.014416786
234	0xbc1d589e	-0.0096036475
235	0xbd8edaa8	-0.06975299
236	0xbc5797b4	-0.013158727
237	0xbc0955d8	-0.008382283
238	0xbc6b654e	-0.014367415
239	0xbcbb6e76	-0.02287982
240	0x3c197c32	0.009367989
241	0x3d3c0c00	0.04590988
242	0x3d0b4f64	0.03401126
243	0x3bce4d10	0.0062958077
244	0x3d5a1e82	0.05325175
245	0xbd17a38e	-0.037021212
246	0x3c9b1666	0.018931579
247	0xbcd4e4f0	-0.025988072
248	0xbcf651e1	-0.03006834
249	0xbcaefe5f	-0.021361528
250	0x3cb3df92	0.021957193
251	0xbc7f5132	-0.015583323
252	0xbc82bc40	-0.015958905
253	0x3c795806	0.01521874
254	0xbcbf4442	-0.023347978
255	0x3cbe8919	0.023258733

action_model._continuous_distribution.mu.bias f4 [2]
0	0xbc32ddbd	-0.010917124
1	0x3c251d88	0.010077842

onnx::Div_51 f4 [8]
0	0x3dc2ea4f	0.09517347
1	0x3db41bc7	0.087943606
2	0x3fa24424	1.2677045
3	0x3eea7003	0.45788583
4	0x3f9c200c	1.219728
5	0x3f99f4a8	1.2027788
6	0x3f90a732	1.1301024
7	0x3f903cb3	1.1268524
